models/plot_model.pth (torch, 13487 bytes, 6 tensors)

layers.0.weight f4 [50, 2]
0	0xbd469f10	-0.048491538
1	0x3ee66c4c	0.450045
2	0xbf2a9159	-0.6662803
3	0xbedfcc67	-0.43710634
4	0xbeb825cb	-0.35966334
5	0x3e874727	0.26421472
6	0xbcd63ffd	-0.026153559
7	0x3f05ea6e	0.52310836
8	0xbd8083e0	-0.06275153
9	0x3e3f9998	0.18710935
10	0xbe958374	-0.29201853
11	0xbdb98f3e	-0.090605244
12	0xbf3e71f2	-0.74392617
13	0xbf0964b1	-0.5366927
14	0xbe953d9f	-0.29148576
15	0x3cd69440	0.026193738
16	0x3e518a37	0.20462881
17	0x3f013ad1	0.5048037
18	0xbf0d6c2c	-0.5524318
19	0xbe717d12	-0.23582867
20	0x3e791b31	0.24326779
21	0x3f0156cb	0.5052306
22	0xbe30f043	-0.17279153
23	0x3f12b6e8	0.5731034
24	0xbde96b20	-0.113973856
25	0x3d993c38	0.07482189
26	0x3f252f62	0.64525425
27	0xbf45f823	-0.7733175
28	0xbeaf9652	-0.34294373
29	0xbd53c48b	-0.05170111
30	0xbeb77b29	-0.3583615
31	0x3f31947e	0.69367206
32	0xbee14ce9	-0.4400399
33	0xbe9d4b2f	-0.30721423
34	0xbf0e04b9	-0.55475956
35	0xbf3915b3	-0.72298735
36	0xbeb50ac7	-0.35359785
37	0x3f429371	0.7600623
38	0x3e8c0cda	0.27353555
39	0x3ed8afdb	0.42321667
40	0x3de800f0	0.11328304
41	0xbef5d9c0	-0.48017693
42	0x3e19469f	0.14968346
43	0xbf2d6334	-0.67729497
44	0xbf0aaaf7	-0.5416712
45	0xbeca60d0	-0.39526987
46	0x3ef61e5e	0.48070043
47	0x3eb7a31c	0.3586663
48	0xbea08ff6	-0.31359833
49	0xbcd10300	-0.025514126
50	0x3ee09f29	0.4387143
51	0x3f333196	0.6999754
52	0x3ebe823c	0.37208736
53	0xbcfd708e	-0.03093746
54	0x3f1046b0	0.5635786
55	0xbf0c8888	-0.5489583
56	0x3e97353b	0.295328
57	0xbf216ca0	-0.63056374
58	0xbf0f5e79	-0.5600353
59	0xbeded51e	-0.4352197
60	0x3eaa73fd	0.33291617
61	0x3e539006	0.2066041
62	0xbea0ea71	-0.31428865
63	0x3eac1434	0.33609164
64	0x3efeb2db	0.4974583
65	0xbe4ee6c8	-0.20205224
66	0x3d1e03bd	0.038577784
67	0x3e70655b	0.23476164
68	0x3ee59522	0.44840342
69	0x3f25898f	0.6466302
70	0xbf0bbf82	-0.5458909
71	0xbe8a4ff2	-0.27014118
72	0x3ea5222c	0.32252634
73	0x3f08bba3	0.5341131
74	0x3f0d87d3	0.55285376
75	0x3f26f147	0.6521191
76	0x3e6354f7	0.2220038
77	0xbf3d5a67	-0.7396607
78	0x3e12dd7d	0.14342304
79	0xbf11d236	-0.5696138
80	0xbf0a3ad2	-0.53996
81	0x3f40ed66	0.7536224
82	0x3f18cdac	0.5968883
83	0xbf54d68f	-0.8313989
84	0x3e236df9	0.1595992
85	0xbddb68a6	-0.107133195
86	0xbe3465dd	-0.17616983
87	0xbec45780	-0.38348007
88	0x3e8b3966	0.2719223
89	0xbed66fd0	-0.4188218
90	0x3ea4e2e5	0.32204357
91	0x3e90c40f	0.2827458
92	0x3f028fa5	0.51000434
93	0x3ea43627	0.32072565
94	0xbf483954	-0.78212476
95	0xbed0ef28	-0.40807462
96	0x3ecb9864	0.39764702
97	0x3d5f9d3f	0.05459332
98	0xbf1cd2b7	-0.61259025
99	0xbeefb0de	-0.46814626

layers.0.bias f4 [50]
0	0x3f34c556	0.7061361
1	0x3f113667	0.56723636
2	0xbe6233cd	-0.22090073
3	0xbe5f274a	-0.21792331
4	0xbf2c704d	-0.6735886
5	0x3d99028b	0.07471188
6	0xbeed9e90	-0.46410036
7	0xbf0ba167	-0.54543155
8	0xbb985323	-0.0046485825
9	0x3e3acaf3	0.18241481
10	0xbec3b755	-0.3822581
11	0x3ee5517b	0.44788727
12	0xbedc508f	-0.4303021
13	0x3f0fb82f	0.56140417
14	0x3f1a3bdc	0.6024759
15	0xbf0378a7	-0.51355976
16	0xbe46f15d	-0.1942801
17	0x3dbdc09f	0.09265255
18	0x3e8abf6e	0.27099174
19	0x3e400b5b	0.18754332
20	0x3e799d72	0.24376467
21	0x3d8dfe18	0.0693323
22	0xbea0e90b	-0.31427798
23	0x3ea96415	0.3308417
24	0xbf2da481	-0.6782914
25	0xbedf1ad2	-0.4357515
26	0xbe45d1ca	-0.1931831
27	0xbebd5135	-0.3697602
28	0xbdb23d8f	-0.087031476
29	0xbf0275d9	-0.5096107
30	0xbe47a96e	-0.19498226
31	0x3e8eba77	0.27876636
32	0xbed32505	-0.4123918
33	0x3cfb6c6b	0.030691346
34	0x3efd3f8a	0.4946254
35	0xbd95ebf7	-0.07320397
36	0x3ba6b8d8	0.005087953
37	0xbdcab928	-0.09898597
38	0x3df5e389	0.120062895
39	0x3edc69ee	0.43049568
40	0x3f507725	0.814318
41	0x3eccd18d	0.40003625
42	0x3f391ba7	0.7230782
43	0x3c0e0590	0.008668318
44	0xbf229d12	-0.6352092
45	0xbed0511b	-0.4068688
46	0x3f09fd37	0.53902
47	0x3da9d57e	0.082926735
48	0xbec9d3de	-0.39419454
49	0xbef6357d	-0.48087683

layers.3.weight f4 [50, 50]
0	0xbd83316f	-0.06405913
1	0xbd521631	-0.051290695
2	0x3da1d8d5	0.079026856
3	0x3e10cf7e	0.14141652
4	0x3d9c961e	0.0764582
5	0xbd902d64	-0.070399076
6	0x3e14b04a	0.14520374
7	0xbde2a392	-0.11066355
8	0x3c9a3fe0	0.018829286
9	0x3c40d38e	0.011769189
10	0xbd43e800	-0.047828674
11	0x3daba097	0.083802395
12	0xbe01f33e	-0.12690446
13	0xbd91e9c1	-0.07124663
14	0x3dcbed7b	0.09957405
15	0x3d8976f5	0.067121424
16	0xbc59a24e	-0.013283325
17	0x3ddf9955	0.10917918
18	0xbc943c1c	-0.018095069
19	0x3cee5801	0.029094698
20	0x3dceb3ae	0.10092865
21	0xbe1696e5	-0.14705999
22	0x3e3c24a0	0.18373346
23	0x3dbac6d1	0.091199525
24	0xbe02b0b8	-0.12762725
25	0x3db39630	0.0876888
26	0xbd63158d	-0.055440474
27	0xbe3407ec	-0.17581147
28	0xba6ebc82	-0.00091070693
29	0xbd2d6ee9	-0.0423421
30	0x3bbc46d5	0.0057457485
31	0x3d7d11c9	0.06178454
32	0xbcf2c8d9	-0.029636787
33	0x3e03490f	0.12820838
34	0x3dd828c9	0.10554654
35	0x3dd50e40	0.104031086
36	0x3cb982df	0.022645412
37	0xbc84864d	-0.01617732
38	0xbe2c7c87	-0.16844378
39	0x3dbf8a61	0.093525656
40	0x3e77a05b	0.24182265
41	0x3d782957	0.0605863
42	0xbd1ec79f	-0.038764592
43	0x3d9224dc	0.071359366
44	0xbdcc2bb6	-0.09969275
45	0xbe2644dd	-0.16237207
46	0xbd5bfe58	-0.053709358
47	0x3de9f51b	0.11423703
48	0xbe445c40	-0.19175816
49	0x3d786ade	0.06064879
50	0x3dd0ee0b	0.10201653
51	0x3e350eda	0.17681447
52	0x3bdfa25e	0.0068247756
53	0xbc88ed4c	-0.016714714
54	0xbda82d74	-0.082117945
55	0x3e390498	0.18068159
56	0x3cdefbc1	0.027219655
57	0x3df44cea	0.11928733
58	0x3da92539	0.08259053
59	0x3dd9c2c3	0.10632851
60	0xbd0867bd	-0.033302058
61	0x3dadbd11	0.08483327
62	0x3c915b10	0.017743617
63	0xbd41f962	-0.04735697
64	0x3df1e9a0	0.118121386
65	0x3de6ea0a	0.11275108
66	0xbd28fae9	-0.04125491
67	0xbb0808cd	-0.0020757199
68	0x3e65aa55	0.22428258
69	0xbda6ba3d	-0.08140991
70	0xbd7a4ec6	-0.06111028
71	0x3cd2bed7	0.025725765
72	0x3e00d3de	0.12580821
73	0x3ce11039	0.027473556
74	0xbdfaff3f	-0.122557156
75	0x3d4c67af	0.049903568
76	0xbe33ddff	-0.17565154
77	0xbe3181eb	-0.17334716
78	0xbe312ea1	-0.17302944
79	0x3d91595f	0.07097124
80	0xbd5eb893	-0.054375242
81	0x3e60c62d	0.21950598
82	0xbdff7270	-0.12472999
83	0x3e5e78c7	0.2172576
84	0x3dde1481	0.108437546
85	0xbc883b82	-0.016629938
86	0x3de083dd	0.10962651
87	0xbdc6b97d	-0.09703348
88	0xbe1c7c0b	-0.15281694
89	0x3c7af264	0.0153165795
90	0x3e351b7c	0.17686266
91	0x3d11ffe7	0.035644438
92	0xbc33447d	-0.010941622
93	0x3daa3dd4	0.08312574
94	0x3d951bdc	0.072807044
95	0xbe80e780	-0.2517662
96	0x3dbd1b1c	0.09233686
97	0xbd0121d3	-0.031526398
98	0xbdfb20f5	-0.122621454
99	0x3d66cbe2	0.05634678
100	0xbba99cbe	-0.005176156
101	0x3db7ab14	0.089681774
102	0x3e727c1a	0.23680153
103	0x3cf9695f	0.030445753
104	0xbdabf3c2	-0.083961025
105	0x3c9979d2	0.018734846
106	0xbdac5f4e	-0.084166154
107	0x3d82bcd8	0.06383675
108	0xbd346282	-0.044039257
109	0xbca5282c	-0.020160757
110	0xbdf67e9b	-0.12035867
111	0x3e4407b9	0.19143571
112	0x3d996184	0.07489303
113	0x3da51b68	0.08061868
114	0x3e1eaa26	0.15494594
115	0x3d084da4	0.03327717
116	0x3c39b6ca	0.011335084
117	0x3dc7f06d	0.097626545
118	0x3e619af4	0.22031766
119	0x3d4e0abe	0.050303213
120	0xbdfbebc2	-0.123008266
121	0xbe26b605	-0.16280372
122	0xbd9eb977	-0.07750218
123	0x3d011976	0.031518422
124	0xbda2892c	-0.0793632
125	0xbe180713	-0.14846449
126	0x3d5e71b6	0.054307662
127	0xbe551a38	-0.20810783
128	0xbe131a1c	-0.14365429
129	0x3df5bd3b	0.119989835
130	0xbd213203	-0.039354336
131	0x3b82c13a	0.0039903196
132	0xbe7da8ed	-0.24771471
133	0x3e496632	0.1966789
134	0x3d1b9d10	0.037991583
135	0x3e2d36ee	0.16915485
136	0xbcae524b	-0.021279475
137	0x3d076a59	0.033060405
138	0xbde92413	-0.11383834
139	0xbd10073a	-0.03516314
140	0x3cf7c1ca	0.030243773
141	0xbad08e6c	-0.0015911586
142	0x3d612258	0.054964393
143	0x3d86f547	0.06589752
144	0xbd0246fa	-0.03180597
145	0xbe4ac8fd	-0.19803233
146	0x3dbcb9a2	0.09215094
147	0xbd053d77	-0.03252932
148	0xbd6ccafc	-0.05781077
149	0x3c89dc07	0.01682855
150	0xbdbb173d	-0.09135292
151	0x3b321523	0.0027173243
152	0xbdd2761c	-0.10276434
153	0x3aa52085	0.0012598193
154	0x3ce38308	0.027772442
155	0xbdf73d0c	-0.12072191
156	0x3c173696	0.009229323
157	0x3d76b97c	0.060235485
158	0x3d8b642f	0.06806218
159	0xbd0e73b6	-0.03477832
160	0xbd83464e	-0.06409894
161	0xbde4b9b6	-0.11168234
162	0x3d492ea0	0.04911673
163	0xbb953a2d	-0.0045540542
164	0xbd17d50f	-0.037068423
165	0x3d8ab4af	0.06772744
166	0xbdb59fc2	-0.08868362
167	0xbc76b8a6	-0.015058672
168	0xbc71c2d6	-0.014755925
169	0x3d0c73c4	0.03429009
170	0x3dbe78b1	0.09300364
171	0x3df345a3	0.118785165
172	0xbde3b156	-0.111178085
173	0x3cda8e09	0.026679056
174	0x3dc88f8a	0.09793003
175	0x3e32eab1	0.1747234
176	0x3e2c6a4c	0.16837424
177	0x3e0c082c	0.13674992
178	0x3e4b487c	0.1985187
179	0xbdb3daa1	-0.087819345
180	0xbd527b7e	-0.051387303
181	0xbe3af8e4	-0.18259007
182	0x3e8bf563	0.27335653
183	0x3d14075f	0.036139842
184	0xbda6df1f	-0.08148026
185	0x3d324f9a	0.043532945
186	0x3dd60d38	0.1045174
187	0x3e25b95d	0.16183992
188	0x3e5ccc3b	0.21562283
189	0x3e283743	0.1642733
190	0xbe2057be	-0.15658471
191	0x3c9b15bb	0.01893126
192	0x3e1adb51	0.15122725
193	0x3d8ac237	0.06775325
194	0xbdae4b38	-0.085104406
195	0x3e74874f	0.23879741
196	0x3dcee028	0.10101348
197	0x3d72f388	0.05931428
198	0x3ccdc66f	0.025119035
199	0x3cd854ba	0.026407588
200	0xbdccae1b	-0.099941455
201	0x3d8b08a9	0.06788761
202	0xbd8c7693	-0.06858554
203	0x3d3b5131	0.045731727
204	0x3ccdc778	0.025119528
205	0x3cdc9291	0.026925357
206	0xbda7568d	-0.08170805
207	0x3d8d373c	0.06895301
208	0xbdbee3f9	-0.09320826
209	0xbb201af6	-0.0024430132
210	0xbd2b1989	-0.0417724
211	0xbe6ba473	-0.23011951
212	0xbde896fe	-0.113569245
213	0x3e1cb9f3	0.15305309
214	0xbce96514	-0.02849058
215	0x3dd860ea	0.1056536
216	0x3dad7d5f	0.08471178
217	0xbe1bd730	-0.15218806
218	0xbe3d8c13	-0.18510465
219	0xbb5dec67	-0.003386283
220	0x3a8be29b	0.0010672392
221	0x3e693515	0.22774155
222	0xbe097467	-0.1342331
223	0xbd3a6e5e	-0.04551541
224	0xbe0be7ad	-0.13662596
225	0xbcdc32f7	-0.02687977
226	0x3e609c6d	0.21934672
227	0x3e83ecdb	0.25766644
228	0x3e822f54	0.25426733
229	0x3d9454dc	0.07242748
230	0x3e4686bc	0.19387335
231	0xbdcfbde5	-0.101436414
232	0x3e592947	0.21207152
233	0x3d8606c9	0.06544263
234	0x3d3e747c	0.046497807
235	0x3ddd7b20	0.108145
236	0x3d827350	0.0636965
237	0x3dfca36f	0.1233586
238	0x3d87fc2e	0.06639896
239	0x3e01f4c7	0.12691031
240	0xbdee419d	-0.116336085
241	0x3d1cbf1e	0.0382682
242	0xbd55dd25	-0.052212853
243	0xbdf0b139	-0.117525525
244	0xbddedd8f	-0.10882103
245	0x3e587a70	0.21140456
246	0x3dff781c	0.12474081
247	0xbd492acb	-0.049113076
248	0x3d5a0118	0.0532237
249	0x3d9e6ebb	0.07735964
250	0x3d9e03a7	0.077155404
251	0xbc11b2a6	-0.008892691
252	0xbdb0cac9	-0.08632428
253	0x3deca312	0.11554541
254	0x3d6ce23c	0.05783294
255	0xbdf6491e	-0.12025665

layers.3.bias f4 [50]
0	0x3e244c64	0.16044766
1	0x3e2f4f2b	0.17120044
2	0x3e587771	0.21139313
3	0xbe012508	-0.12611783
4	0x3cc4594f	0.023968367
5	0xbcb0e0ce	-0.02159157
6	0x3dc3251f	0.09528565
7	0x3d863d95	0.065547146
8	0x3d878043	0.06616261
9	0x3e63b6ad	0.22237654
10	0xbe03fad7	-0.12888657
11	0x3e458af6	0.1929129
12	0x3dbb5972	0.0914792
13	0x3de724ca	0.11286314
14	0xbd3878d5	-0.04503711
15	0x3d80202c	0.06256136
16	0x3a8722f0	0.0010310095
17	0xbcec7855	-0.028865973
18	0xbcad637f	-0.021165607
19	0x3d7c2303	0.061556827
20	0x3cb5c7f2	0.022190068
21	0xbd093597	-0.033498373
22	0x3e117a1f	0.14206742
23	0x3d9828e9	0.07429678
24	0xbd655c9c	-0.055996522
25	0x3d84a130	0.064760566
26	0x3d0fecee	0.035138063
27	0xbc1bbac0	-0.009504974
28	0xbd09954d	-0.03358965
29	0x3e69645f	0.22792195
30	0xbce8e9e9	-0.02843185
31	0xbdb6b9fd	-0.08922193
32	0x3cd1f8c3	0.025631314
33	0x3d915715	0.07096688
34	0xbe305678	-0.17220485
35	0xbc9fc75f	-0.019504247
36	0xbdcae8f6	-0.09907715
37	0xbd1f5f98	-0.038909525
38	0x3df1080c	0.11769113
39	0xbd8e1f16	-0.06939523
40	0x3de205de	0.11036275
41	0x3ba635b1	0.0050723185
42	0x3c644048	0.0139313415
43	0xbbc08c25	-0.0058760815
44	0x3e2baccd	0.16765137
45	0xbd32438c	-0.04352145
46	0x3e519b06	0.20469293
47	0xbd7e5847	-0.062095907
48	0x3bd97981	0.006636799
49	0x3e21b668	0.15792239

layers.6.weight f4 [2, 50]
0	0x3e2905bc	0.16506094
1	0x3dd25744	0.10270551
2	0x3ddedc77	0.10881894
3	0xbe5d37c2	-0.21603301
4	0xbe487896	-0.1957725
5	0xbbb4dc81	-0.00551945
6	0x3de1a2bc	0.11017367
7	0x3e4d18ee	0.20029041
8	0x3daf65fd	0.085643746
9	0x3e3d4cc6	0.18486318
10	0xbddeb90b	-0.10875138
11	0xbc0fb75d	-0.008771745
12	0xbe5bafb7	-0.21453749
13	0x3e21fba5	0.15818651
14	0xbe4f8461	-0.20265342
15	0xbdbe2c6a	-0.09285815
16	0xbe19fc24	-0.1503759
17	0xbe4d47ce	-0.20046923
18	0xbe086fc7	-0.1332389
19	0xbe40cabd	-0.18827339
20	0xbe1ce05b	-0.1531996
21	0x3dc7b685	0.0975161
22	0x3d90b23d	0.07065246
23	0x3e16bf84	0.14721495
24	0x3cf1d894	0.029522218
25	0xbdf2d558	-0.11857098
26	0xbcd4d3df	-0.025979934
27	0xbdb4c5d3	-0.088267945
28	0xbdc3c274	-0.09558573
29	0x3e487c4a	0.19578663
30	0x3d8ccfde	0.06875585
31	0xbe6ad5c3	-0.22933106
32	0x3e6b9264	0.23005062
33	0xbd7c0504	-0.06152822
34	0xbe1125c4	-0.14174563
35	0xbe3b19f9	-0.18271627
36	0xbe73885c	-0.23782486
37	0xbe1a0b35	-0.15043338
38	0x3e5f5a52	0.21811798
39	0x3d72cf87	0.059279945
40	0xbd842e92	-0.06454195
41	0xbe1acd79	-0.15117444
42	0x3d884b3d	0.066549756
43	0xbe5082f2	-0.20362452
44	0x3e21ac86	0.15788469
45	0xba832ea9	-0.0010008413
46	0x3d81dd70	0.06341064
47	0xbdc411d3	-0.09573712
48	0x3c8d283a	0.017231096
49	0x3e330d20	0.17485476
50	0xbd82bdb8	-0.06383842
51	0xbdf6b754	-0.12046686
52	0xbda8cdef	-0.08242404
53	0x3dd227e6	0.10261516
54	0xbca8199f	-0.02052003
55	0x3e09f511	0.13472392
56	0xbe416ca0	-0.18889093
57	0xbc55040e	-0.013001455
58	0xbd7ee984	-0.062234417
59	0xbdb4459c	-0.088023394
60	0x3dbd35f6	0.09238808
61	0xbe6dab82	-0.23209956
62	0x3e1646c3	0.14675431
63	0xbe5c6bc3	-0.21525483
64	0x3dc2783e	0.094955906
65	0xbd9c6300	-0.0763607
66	0x3e23cf46	0.15997037
67	0x3e5fc230	0.2185142
68	0x3de00192	0.109377995
69	0x3dc2fa4e	0.09520398
70	0x3c2d53e7	0.010579086
71	0x3db7a190	0.089663625
72	0xbe295755	-0.16537221
73	0x3ce99a50	0.028515965
74	0xbdb391c3	-0.08768036
75	0x3e490651	0.19631316
76	0x3dbe90c6	0.09304957
77	0x3d975581	0.073893555
78	0xbc882b88	-0.01662232
79	0xbd043837	-0.032280173
80	0xbe76fe27	-0.24120389
81	0x3e531594	0.206137
82	0xbe0c4b97	-0.1370071
83	0x3decf81c	0.115707606
84	0x3cbdc564	0.023165412
85	0x3cc5220c	0.024064086
86	0x3d57a691	0.052649084
87	0x3df0f11a	0.117647365
88	0xbe2b17cc	-0.16708297
89	0x3c59befc	0.013290163
90	0x3e16fcd9	0.14744891
91	0x3d37e70d	0.04489808
92	0xbe63df0d	-0.22253056
93	0xbd8f0e77	-0.06985181
94	0xbe362c47	-0.17790328
95	0x3dc0474b	0.09388598
96	0xbe46e3c0	-0.19422817
97	0x3e04a9d0	0.12955403
98	0x3e19e9da	0.15030614
99	0xbe20b097	-0.15692364

layers.6.bias f4 [2]
0	0x3d397141	0.045274023
1	0xbe567f62	-0.2094703
